---------- Networks initialized -------------
----------------------------------------------------------------
        Layer (type)               Output Shape         Param #
================================================================
            Conv2d-1         [-1, 64, 224, 224]           1,728
       BatchNorm2d-2         [-1, 64, 224, 224]             128
              ReLU-3         [-1, 64, 224, 224]               0
            Conv2d-4         [-1, 64, 224, 224]          36,864
       BatchNorm2d-5         [-1, 64, 224, 224]             128
              ReLU-6         [-1, 64, 224, 224]               0
         MaxPool2d-7         [-1, 64, 112, 112]               0
            Conv2d-8        [-1, 128, 112, 112]          73,728
       BatchNorm2d-9        [-1, 128, 112, 112]             256
             ReLU-10        [-1, 128, 112, 112]               0
           Conv2d-11        [-1, 128, 112, 112]         147,456
      BatchNorm2d-12        [-1, 128, 112, 112]             256
             ReLU-13        [-1, 128, 112, 112]               0
        MaxPool2d-14          [-1, 128, 56, 56]               0
           Conv2d-15          [-1, 256, 56, 56]         294,912
      BatchNorm2d-16          [-1, 256, 56, 56]             512
             ReLU-17          [-1, 256, 56, 56]               0
           Conv2d-18          [-1, 256, 56, 56]         589,824
      BatchNorm2d-19          [-1, 256, 56, 56]             512
             ReLU-20          [-1, 256, 56, 56]               0
           Conv2d-21          [-1, 256, 56, 56]         589,824
      BatchNorm2d-22          [-1, 256, 56, 56]             512
             ReLU-23          [-1, 256, 56, 56]               0
        MaxPool2d-24          [-1, 256, 28, 28]               0
           Conv2d-25          [-1, 512, 28, 28]       1,179,648
      BatchNorm2d-26          [-1, 512, 28, 28]           1,024
             ReLU-27          [-1, 512, 28, 28]               0
           Conv2d-28          [-1, 512, 28, 28]       2,359,296
      BatchNorm2d-29          [-1, 512, 28, 28]           1,024
             ReLU-30          [-1, 512, 28, 28]               0
           Conv2d-31          [-1, 512, 28, 28]       2,359,296
      BatchNorm2d-32          [-1, 512, 28, 28]           1,024
             ReLU-33          [-1, 512, 28, 28]               0
        MaxPool2d-34          [-1, 512, 14, 14]               0
           Conv2d-35          [-1, 512, 14, 14]       2,359,296
      BatchNorm2d-36          [-1, 512, 14, 14]           1,024
             ReLU-37          [-1, 512, 14, 14]               0
           Conv2d-38          [-1, 512, 14, 14]       2,359,296
      BatchNorm2d-39          [-1, 512, 14, 14]           1,024
             ReLU-40          [-1, 512, 14, 14]               0
           Conv2d-41          [-1, 512, 14, 14]       2,359,296
      BatchNorm2d-42          [-1, 512, 14, 14]           1,024
             ReLU-43          [-1, 512, 14, 14]               0
           Conv2d-44          [-1, 1, 224, 224]              64
           Conv2d-45          [-1, 1, 112, 112]             128
           Conv2d-46            [-1, 1, 56, 56]             256
           Conv2d-47            [-1, 1, 28, 28]             512
           Conv2d-48            [-1, 1, 14, 14]             512
           Conv2d-49          [-1, 1, 224, 224]               5
     DeepCrackNet-50  [[-1, 1, 224, 224], [-1, 1, 224, 224], [-1, 1, 224, 224], [-1, 1, 224, 224], [-1, 1, 224, 224], [-1, 1, 224, 224]]               0
================================================================
Total params: 14,720,389
Trainable params: 14,720,389
Non-trainable params: 0
----------------------------------------------------------------
Input size (MB): 0.57
Forward/backward pass size (MB): 8796093021885.54
…
